release project/Ai ultra project/model.tflite (tflite, 2884 bytes, 5 tensors)

arith.constant f4 [1, 8]
000000 48 6b 43 bf 4f ba 3d 3f 3f 5d 40 bf 90 fe 81 3d
       -0.76335573 0.7411241 -0.7514228 0.06347382
000010 88 93 e5 bd 2f 30 37 bf fc 80 ec 3e f0 40 4a 3d
       -0.1120978 -0.715579 0.46192157 0.049378335

arith.constant1 f4 [8, 16]
000000 42 cc bb be d8 d3 ac be 00 01 37 3c d9 ea 7b 3e
       -0.36679274 -0.33755374 0.011169672 0.24601306
000010 40 3d cb bc 2e cb 46 be 48 bd f8 3e cc a0 d6 3e
       -0.02480948 -0.19413444 0.4858191 0.41919553
000020 df 95 fc be 38 1b 93 be 17 d2 bc be 37 72 af 3e
       -0.49333093 -0.28731704 -0.36879036 0.34266827
000030 09 8d d0 be ee 17 eb 3e 8c 4e ce be b4 74 95 3e
       -0.407326 0.45916694 -0.40294302 0.291906
000040 56 b1 53 3e c0 d4 cf 3c fc ad d5 be 8d 4a 06 3f
       0.20673117 0.025370002 -0.41734302 0.52457505
000050 d0 d3 22 3e d8 95 b1 3e 14 c3 d2 3e 74 92 f4 be
       0.15901113 0.34684634 0.41164458 -0.47767985
000060 5e 6b 7b 3e 60 87 72 3e 8d 6a d3 3e 46 e5 e2 be
       0.24552676 0.23684454 0.4129223 -0.44315547
000070 5c c0 c6 3e 8c 51 e3 bb fe e4 fc bd a3 c5 d1 bd
       0.38818634 -0.0069372114 -0.12348364 -0.10242774
000080 80 58 80 3c c8 52 65 be 00 1b bc 3d 74 27 99 3e
       0.0156672 -0.2239486 0.09184837 0.29912913
000090 6c 2f 89 be c8 a3 c1 be 14 f8 e1 be c8 bb 14 3e
       -0.26793993 -0.37820268 -0.4413458 0.14524758
0000a0 c0 51 77 be 00 82 a3 3b 20 bc 77 bd 30 ba e4 3e
       -0.24152279 0.0049898624 -0.060482144 0.446733
0000b0 98 65 70 be 80 42 93 3c f4 6a ae be 4c 48 f0 be
       -0.23476255 0.017976046 -0.34065974 -0.46930158
0000c0 04 41 d3 3e 40 6a 64 be 88 f8 01 3e d8 94 01 be
       0.4126054 -0.22306156 0.12692463 -0.12654436
0000d0 b8 9e 70 be 0c ad f1 3e 48 27 a0 be 64 bf b6 be
       -0.23498046 0.47202337 -0.3127997 -0.35692894
0000e0 08 fa af be 88 6f f5 be 40 6f 09 bd 90 50 86 bd
       -0.34370446 -0.47936654 -0.033553362 -0.06558335
0000f0 38 5f 6c be 94 35 bd be 50 a5 d5 3e 20 f8 e6 3e
       -0.23083198 -0.3695494 0.41727686 0.4511118
000100 40 0a 54 3e 24 ad da 3e 60 34 db be b0 59 ae bd
       0.20707035 0.4271022 -0.42813396 -0.085132
000110 b0 58 4d be c8 eb 84 3e 80 62 22 3d 50 f3 e7 3d
       -0.20053363 0.25961137 0.03964472 0.11325705
000120 70 0f f1 3e d0 bd 31 3e a0 a1 85 be e8 f0 e7 be
       0.4708209 0.17357564 -0.26099873 -0.45300984
000130 e0 d1 df be 80 7a 65 bd 10 da 64 be 98 8c c2 be
       -0.4371481 -0.05602503 -0.22348809 -0.3799789
000140 38 e7 4e 3e 80 63 69 3c d0 aa e2 be 00 d6 01 3b
       0.2020539 0.014244914 -0.44270945 0.0019811392
000150 fc 7a a6 be 14 e7 87 3e b8 f1 9a be 50 eb c9 3e
       -0.32515705 0.26543486 -0.30262542 0.39437342
000160 e4 20 91 3e 90 9b bf bd 10 d3 72 3e c4 5a 89 3e
       0.28345406 -0.09355843 0.23713326 0.2682706
000170 50 70 d0 3d 84 ff d3 be 30 a8 ec 3d c8 ee d2 be
       0.10177672 -0.4140588 0.11555517 -0.411978
000180 60 51 ab 3d d0 26 cf bd 70 ce 7f be ec 90 d4 be
       0.083651304 -0.10114825 -0.24981093 -0.41516817
000190 48 68 5d 3e 58 92 8b 3e 30 22 f3 3e f8 51 5b be
       0.21621811 0.2726009 0.4748702 -0.21417987
0001a0 c0 40 99 bd fc 47 e3 3e 20 7b ba be 00 c4 06 3b
       -0.07483053 0.44390857 -0.36422062 0.0020563602
0001b0 80 9c c0 bd c8 1a e9 be 20 68 ea 3e d0 aa b9 3d
       -0.0940485 -0.45528245 0.45782566 0.09065783
0001c0 00 60 26 3e d8 de 5e be b4 22 ec be 30 ae 9f bd
       0.16247559 -0.21764696 -0.46120226 -0.077968955
0001d0 b4 10 c2 3e c0 76 d7 3e c4 ea 81 be 80 24 74 be
       0.37903368 0.42082787 -0.25374424 -0.23842049
0001e0 58 27 a4 3e 00 aa a0 3c 00 39 c7 bd b0 d1 f1 3e
       0.32061267 0.019612312 -0.09727669 0.4723029
0001f0 08 b5 4b 3e ec 07 bb be e8 d4 61 be 00 25 b6 bb
       0.19893277 -0.3652948 -0.22053874 -0.00555861

sequential_1/dense_1_2/Add/ReadVariableOp f4 [8]
000000 c3 ac 11 bd a7 92 13 3d 00 00 00 00 00 00 00 00
       -0.03556515 0.03602853 0.0 0.0
000010 00 00 00 00 00 00 00 00 00 00 00 00 00 00 00 00
       0.0 0.0 0.0 0.0

sequential_1/dense_1/Add/ReadVariableOp f4 [16]
000000 31 6a 1d bd 00 00 00 00 00 00 00 00 2a bd 1d 3d
       -0.03843135 0.0 0.0 0.03851048
000010 00 00 00 00 5d eb 15 3d 00 00 00 00 00 00 00 00
       0.0 0.036601413 0.0 0.0
000020 b8 41 14 3d 00 00 00 00 32 70 09 bd 59 02 11 bd
       0.036195487 0.0 -0.033554263 -0.03540263
000030 d1 74 14 3d 9c 2c 0f bd b0 1b da 3c 5a 14 0f bd
       0.036244217 -0.034954652 0.02662453 -0.03493152

sequential_1/dense_1/MatMul f4 [16, 3]
000000 23 ec 0a bf 6f 61 84 3e ae 82 a9 3e 00 46 77 bd
       -0.54266566 0.25855586 0.33107513 -0.06036949
000010 e0 9d 1a bd c9 53 0a 3f 20 aa d6 bc 55 0f 91 be
       -0.037748218 0.54034096 -0.026204169 -0.2833201
000020 c4 fe 86 3e 96 05 6b 3e ed bf 9a 3e ca b6 0f be
       0.26366246 0.2295135 0.30224553 -0.14034572
000030 98 cc 86 bd 07 30 d6 be 10 cc 6f 3e 3f 47 48 3e
       -0.06581992 -0.41833517 0.23417687 0.19558428
000040 bb eb 50 bd 34 5d 74 3e 7c 60 ee be 7c dd 09 bf
       -0.05100606 0.23863679 -0.46557987 -0.53853583
000050 30 d7 09 3d 9d 51 92 be a2 11 75 be e0 0f 1f 3d
       0.033652484 -0.2857789 -0.23932508 0.0388335
000060 cb e4 d4 3e d4 9b a1 bc 38 b1 74 be 50 61 47 be
       0.41580805 -0.019727625 -0.23895729 -0.19470716
000070 cb 5c 01 bf c0 b4 31 3d 28 85 6f be e1 98 c5 3d
       -0.50532216 0.043385267 -0.23390639 0.096483
000080 02 00 31 be c8 1a 3a be d6 82 a7 3e c0 7c 90 be
       -0.17285159 -0.18174279 0.32717007 -0.28220177
000090 bd 7e 88 3e f1 81 67 3e 0e 5b d2 be 03 36 e7 3e
       0.26659194 0.22608162 -0.41085094 0.45158395
0000a0 34 73 e5 3e ee 1c 89 3e 39 d6 fb 3e ef 34 f3 be
       0.44814456 0.26779884 0.49186876 -0.47501323
0000b0 e4 4a 04 bf f9 34 2a be ac 21 f9 3e 8c 9b 57 3e
       -0.51676774 -0.1662177 0.48658502 0.2105543
